Deep Learning/Basic ANN/Using Iris dataset/Basic_neural_network.pt (torch, 4316 bytes, 8 tensors)

fc1.weight f4 [10, 4]
0	0xbe86f080	-0.26355362
1	0xbe8bf8ba	-0.273382
2	0x3e99df18	0.3005302
3	0xbea9603c	-0.33081234
4	0xbe70aec0	-0.23504162
5	0x3e8b4282	0.2719918
6	0xbebe5e1a	-0.3718117
7	0x3e7b1964	0.24521405
8	0x3efa8453	0.4892908
9	0xbe33abdd	-0.1754603
10	0x3ee52a58	0.44758868
11	0x3f4d4416	0.80182016
12	0x3f434510	0.76277256
13	0x3f139a98	0.57657766
14	0xbed77f96	-0.42089528
15	0xbe53e158	-0.2069143
16	0x3f1dcee5	0.6164382
17	0x3ef7cc11	0.48397878
18	0xbf0eacba	-0.5573231
19	0xbf766f4b	-0.9626357
20	0xbee20954	-0.44147742
21	0x3ea9a77a	0.33135587
22	0xbd31b970	-0.043389738
23	0x3eb06166	0.3444931
24	0x3eda58d1	0.42645887
25	0x3ee9d571	0.45670655
26	0xbf07cb57	-0.53044647
27	0xbf0a4dc4	-0.5402491
28	0xbea44298	-0.32082057
29	0xbde39248	-0.11111885
30	0x3e982fec	0.2972406
31	0xbe8b66de	-0.2722692
32	0x3dee0fb6	0.116240904
33	0xbcc5928f	-0.024117736
34	0x3e7ef04e	0.24896356
35	0x3f96759c	1.1754642
36	0x3ea5e10c	0.3239826
37	0xbf182224	-0.59427094
38	0x3f44adca	0.7682768
39	0x3eec79cf	0.46186683

fc1.bias f4 [10]
0	0x3e52eaf4	0.2059744
1	0x3e53dde8	0.2069012
2	0xbf1946ad	-0.5987347
3	0x3ea1e4e6	0.31619948
4	0x3f9ecdd4	1.2406564
5	0xbdec87e0	-0.115493536
6	0x3f9a4ea9	1.2055255
7	0xbe998afe	-0.29988855
8	0xbedf1805	-0.43573013
9	0xbe84d1fd	-0.25941458

fc2.weight f4 [10, 10]
0	0xbe8c7deb	-0.27439818
1	0x3c47f4e0	0.012204379
2	0xbb872ec0	-0.004125446
3	0xbe8a6164	-0.27027428
4	0xbd7ae768	-0.061255842
5	0xbe9468d8	-0.2898624
6	0x3d8bedc8	0.068324625
7	0x3d5a2330	0.053256214
8	0x3e3946ce	0.18093416
9	0x3c019680	0.007909417
10	0xbe026367	-0.12733231
11	0xbde98042	-0.11401416
12	0xbdaed59c	-0.085368365
13	0x3f62e975	0.8863748
14	0x3f5e0c1c	0.8673723
15	0xbea13486	-0.31485385
16	0x3f45248f	0.7700891
17	0xbd2cf288	-0.042223483
18	0xbec49276	-0.3839299
19	0xbe3ffa8a	-0.18747917
20	0x3e8d5245	0.2760183
21	0x3dc81f94	0.09771648
22	0xbe91e058	-0.28491473
23	0x3d883888	0.066514075
24	0xbd93d420	-0.07218194
25	0x3e22193e	0.15829942
26	0xbe8af840	-0.27142525
27	0xbcbd8360	-0.023133934
28	0x3e56029a	0.2089943
29	0x3de58490	0.11206925
30	0x3e185d84	0.14879423
31	0x3e891571	0.2677417
32	0x3f3796f8	0.71714735
33	0xbc9ef178	-0.01940225
34	0xbed8a933	-0.4231659
35	0x3caa8070	0.020813197
36	0xbe2a2d10	-0.16618752
37	0xbd955b06	-0.07292752
38	0x3f4a715d	0.7907923
39	0x3efd5f81	0.49486926
40	0xbdb30814	-0.08741775
41	0x3e6cc2ee	0.23121235
42	0xbd420191	-0.047364775
43	0xbeaac587	-0.33353826
44	0x3e18df8e	0.1492903
45	0xbdd6552c	-0.10465464
46	0xbd195e6b	-0.03744356
47	0xbe92d07d	-0.2867469
48	0x3e007bc4	0.12547213
49	0xbe904ecb	-0.28185114
50	0xbd12e168	-0.035859495
51	0x3e8afd91	0.2714658
52	0x3d038ebf	0.032118555
53	0x3e6db127	0.2321211
54	0xbe1f70ee	-0.15570423
55	0xbe969eec	-0.29418123
56	0xbe6d174b	-0.23153417
57	0xbdddd2b8	-0.10831207
58	0xbe3ab91e	-0.18234679
59	0xbdb52a44	-0.08845952
60	0x3e392af4	0.18082792
61	0x3e8d33c5	0.2757856
62	0xbe9ed598	-0.31022334
63	0xbe3bdbc5	-0.18345554
64	0x3e8b2fff	0.27185056
65	0xbd57f7b8	-0.052726477
66	0xbdb6ac5a	-0.08919592
67	0xbe9f319b	-0.31092533
68	0xbd53a4e0	-0.05167091
69	0xbe8fe2e9	-0.28102806
70	0x3e8929b7	0.26789638
71	0xbe14938a	-0.14509407
72	0xbea30a56	-0.31843823
73	0x3e6d60a9	0.23181404
74	0x3f09fa34	0.53897405
75	0x3e8d6c0d	0.276215
76	0x3ee256ad	0.44206753
77	0xbe71b60e	-0.23604605
78	0xbe6a9cfa	-0.22911444
79	0xbeb69655	-0.3566157
80	0x3dec8bbc	0.1155009
81	0xbe74fbfb	-0.23924248
82	0xbe4f75f8	-0.20259845
83	0xbcc24840	-0.023716092
84	0xbdd6db82	-0.104910865
85	0x3c36d920	0.011160165
86	0x3df41238	0.119175375
87	0x3cfe1750	0.031016976
88	0xbe0c598d	-0.13706036
89	0xbbf30780	-0.0074166656
90	0x3e7a4152	0.2443898
91	0x3e8dd62f	0.27702472
92	0x3f1e034d	0.61723787
93	0x3d8eb5a7	0.06968241
94	0xbea43624	-0.32072556
95	0x3ea07deb	0.31346068
96	0xbf2bf258	-0.6716666
97	0xbe8ddec4	-0.2770902
98	0x3f46bcb6	0.776317
99	0x3f148f61	0.5803128

fc2.bias f4 [10]
0	0xbe65087c	-0.22366518
1	0x3f627934	0.8846619
2	0xbe27fc1f	-0.1640477
3	0xbe8b1192	-0.27161843
4	0x3e6f294e	0.233556
5	0xbe629365	-0.22126539
6	0x3e1baefc	0.1520347
7	0x3e5ff031	0.2186897
8	0x3e1cd232	0.15314558
9	0xbeee847f	-0.46585461

fc3.weight f4 [10, 10]
0	0x3dc6d2b8	0.0970816
1	0xbe815703	-0.25261697
2	0xbe26f42b	-0.1630408
3	0xbe8c9934	-0.27460635
4	0x3e91e512	0.2849508
5	0x3e2193c9	0.15779032
6	0x3e9be0d1	0.3044496
7	0x3e76e5bf	0.24111079
8	0xbdc48878	-0.09596342
9	0x3e52febf	0.2060499
10	0xbe57c02c	-0.21069402
11	0xbf22ca0b	-0.63589543
12	0xbda88916	-0.08229272
13	0x3edd66c7	0.43242475
14	0xbd9780f3	-0.07397642
15	0xbe2bb97d	-0.16769977
16	0x3e467af6	0.19382843
17	0xbd1cbd78	-0.03826663
18	0x3e44d362	0.19221261
19	0x3f05236b	0.5200717
20	0xbdcec2f4	-0.10095778
21	0x3e292456	0.16517767
22	0xbe8e016d	-0.27735463
23	0x3f0cdf4f	0.5502824
24	0x3e50ea32	0.20401838
25	0x3da2a86d	0.07942281
26	0x3e8afebf	0.2714748
27	0xbef8c96a	-0.48591167
28	0xbe8da4d2	-0.2766481
29	0x3f2ef39f	0.68340486
30	0x3e9de937	0.3084199
31	0xbdda5144	-0.106600314
32	0x3d6a4e28	0.05720344
33	0x3cfe984c	0.03107848
34	0x3e2924d2	0.16517952
35	0x3d409f58	0.047026962
36	0xbe8af8ba	-0.27142888
37	0xbd6406f8	-0.05567071
38	0x3e277ce4	0.16356236
39	0xbd98ca56	-0.074604675
40	0xbe6a6d6e	-0.22893307
41	0xbf6ab01d	-0.9167498
42	0xbdd541b8	-0.104129255
43	0x3f0880d9	0.53321606
44	0xbd17b8aa	-0.037041344
45	0x3ea44d2c	0.32090127
46	0x3cfecad0	0.031102568
47	0xbe252bc8	-0.16129982
48	0x3cf87230	0.030327886
49	0x3f222d9d	0.6335085
50	0x3e8c2075	0.27368513
51	0xbe876735	-0.26445928
52	0xbe6e93b5	-0.23298533
53	0xbdf0f710	-0.117658734
54	0xbc089580	-0.008336425
55	0xbdcf915a	-0.101351455
56	0xbe8b15fb	-0.27165207
57	0x3b61f000	0.0034475327
58	0x3e541b7a	0.20713606
59	0xbe81b893	-0.2533613
60	0x3d9192a0	0.071080446
61	0xbe50ae6a	-0.20379034
62	0x3e1ff1a2	0.1561952
63	0xbd3d19c8	-0.046167165
64	0x3e68a0aa	0.22717538
65	0x3e271dbe	0.1631994
66	0xbe68504e	-0.22686884
67	0x3e87eb5b	0.2654675
68	0xbe906f88	-0.28210092
69	0xbcf73db0	-0.030180782
70	0x3e2cc968	0.16873705
71	0x3f4b9461	0.79523283
72	0xbe7b9146	-0.24567136
73	0xbea72489	-0.32645062
74	0xbd531b40	-0.05153966
75	0xbd4b9c8b	-0.049709838
76	0xbe88c8e6	-0.26715773
77	0x3f3ca281	0.7368546
78	0x3e821967	0.25410005
79	0xbe86dab7	-0.2633874
80	0x3de75a18	0.11296481
81	0xbf39f6c3	-0.72642154
82	0xbe3d927d	-0.18512912
83	0x3ef3fa0b	0.47651705
84	0x3d37994a	0.044823922
85	0xbde39062	-0.11111523
86	0xbe98b9d8	-0.29829288
87	0xbe960257	-0.2929866
88	0xbda0c1d2	-0.07849468
89	0x3f11ea71	0.56998354
90	0x3c7b5ee0	0.015342444
91	0x3e708047	0.23486434
92	0xbdb1a508	-0.08674055
93	0x3ee1192d	0.4396452
94	0xbeb6141d	-0.3556222
95	0x3e35cd0a	0.17753997
96	0x3e70d3c2	0.23518279
97	0xbf319001	-0.6936036
98	0x3e1c4f8a	0.15264717
99	0x3e9882b6	0.29787225

fc3.bias f4 [10]
0	0xbd9d0da3	-0.076686166
1	0xbf15ce49	-0.5851789
2	0x3e8bf87c	0.27338016
3	0xbea384a5	-0.31937137
4	0xbef6f5ce	-0.4823441
5	0xbe471835	-0.19442828
6	0xbdc195f4	-0.094524294
7	0x3e843af0	0.25826216
8	0x3d830106	0.063966796
9	0x3f6ee21d	0.9331377

out.weight f4 [3, 10]
0	0x3d2d76e0	0.042349696
1	0xbe04f267	-0.12983094
2	0xbea59ffc	-0.3234862
3	0xbe3264c6	-0.17421255
4	0xbedae410	-0.42752123
5	0x3d82bc88	0.06383616
6	0xbe2c9a63	-0.16855769
7	0x3f2819c2	0.65664303
8	0xbf1ebfee	-0.6201161
9	0xbf09fc13	-0.5390026
10	0xbd74b949	-0.059747014
11	0xbf1f34cc	-0.62189937
12	0x3f35b07f	0.70972437
13	0x3e72b3f8	0.23701465
14	0xbec35afb	-0.3815535
15	0x3e08eef4	0.13372403
16	0x3cba0150	0.022705704
17	0xbd80d092	-0.06289782
18	0xbe4647fc	-0.19363397
19	0x3f1d6559	0.6148277
20	0x3e95d6d8	0.29265475
21	0x3f5f3a78	0.8719859
22	0x3eba3fa1	0.3637667
23	0xbe3de7e8	-0.18545496
24	0x3f483306	0.78202856
25	0x3e4489fa	0.19193259
26	0xbd066fc8	-0.032821447
27	0xbece0e33	-0.40245208
28	0x3efaac62	0.48959643
29	0xbe6efa55	-0.23337682

out.bias f4 [3]
0	0x3ec00e5e	0.3751096
1	0x3dcf9412	0.10135664
2	0xbf12b748	-0.57310915
