Deep Learning/Basic ANN/Customer Churn Prediction/best_model.pth (torch, 16098 bytes, 10 tensors)

fc1.weight f4 [64, 11]
00000000: 9fe9 2a3e 222a b2bd 2ae9 7e3e 2c41 023e
00000010: f080 dd3c e068 6bbe 0890 853e 37b6 8bbd
00000020: 4206 973e a5d4 9b3d a36b 0dbe 1cde 7ebe
00000030: 0136 873d 6940 c3bd a01f 4c3e 252c 673d
00000040: f7dd febd f16d 89be 760b 263d d4b9 983e
00000050: 4721 45be 4f94 80be 85f0 b43d a669 20be
00000060: 5a3d 7ebe 5e25 213e 1893 25be d1d2 a3bd
00000070: 6b70 3fbe 400c 443c 5881 6e3e 2a60 66be
00000080: 5ea8 02be 9d20 d83c 12a6 863e ba40 803e
00000090: de50 2dbe 0208 893d 6aba 67be 7ab7 073e
000000a0: 84ab 3fbd 1991 0fbe 5b81 fc3d 4706 933d
000000b0: a0fb 943e 64cc 683d 0fca 193e 69a1 dc3d
000000c0: f68d 963e 6392 5dbe 81c8 713e 1de8 4cbc
000000d0: e362 a3bd bd65 173e 24b9 173d 95cb ed38
000000e0: bc01 38be a89b 89be 9b34 7dbe 3768 523e
000000f0: 097d 6b3e 37be 853e 71bf cd3d 271b 73be
00000100: 6185 05be 5656 91be 1579 9dbe 9470 1fbe
00000110: 25c5 8b3e 1084 14bc ed74 9dbd 5f5a 6e3e
00000120: 1feb dc3d 7051 a5bd 3030 6e3e 03da 36be
00000130: 9c30 6abe 0125 0fbd e15e 88be fd99 1cbe
00000140: 95ef dabd 0138 f8bd a30f 9c3e 6eac 643e
00000150: 4ee0 943c 63bc 7b3d 5ee3 ab3d 20f5 2e3e
00000160: 005f 3abe a639 7ebe 00e7 7b3e 15b2 00be
00000170: 5a9f 67be b8a5 dabd 844c 893d 4146 e93d
00000180: d46e 503e 1ba0 943e 7890 11be 9ad8 44be
00000190: 20ad 23be c2db f53d b84d 8d3e 71b6 ec3d
000001a0: 916e 8f3e 8863 7f3e 8649 7abe 72de db3d
000001b0: 7731 70be b3d6 cd3d 0e52 f9bc 6629 703c
000001c0: 253d 213d 214f f1bc 8f82 d3bd 9dcf 7ebe
000001d0: 7bfd cd3d 7aa8 66be 28ff 903e 6ef0 e1bd
000001e0: 6a4a 2a3e 0dd9 4e3d 3424 12bd e9c7 353d
000001f0: fc3e 80be 7523 1cbe 1f95 843e 3a61 25bc
00000200: 4f59 a03c 006e 18be 9d95 85bd 033d 8cbe
00000210: f738 53be 2a86 613e 2787 ca3d d7f0 4cbe
00000220: 6268 1bbe 15f9 4dbc 37fc 603e 6bd3 f5bd
00000230: 4577 88be e0b7 c6bd 68f8 2b3d 4a78 a53c
00000240: 1257 59be 407f 5d3e 30b9 833e 3d44 733e
00000250: bc14 e5bd b27d 93be 2a02 68be 929c 8d3e
00000260: f652 a23d bd7f 43be a14e f7bd aeee 963d
00000270: 0c0f 5cbe 4bc6 053e edbf 5abd 37a1 453e
00000280: 3502 183d b0a0 563e 6c0b b7bd 3b5d 59be
00000290: f246 0f3e c068 db3d 8926 87bd f66a 9fbc
000002a0: 5229 883e f5ba 52be db1a 233e d797 dabc
000002b0: 43b3 1fbe ec6e 9fbd 8a2f 9fbd 9bde 333e
000002c0: a416 40be c839 3bbe 0725 a7bd 83c6 0e3e
000002d0: 2f28 2bbe 93c2 82be 30ab 83bd 005f 33be
000002e0: 718c a53b 0e80 29be afa6 433e ac72 0e3e
000002f0: 09ef d3bd b9a4 dabd dba6 463e 927f 7cbe
00000300: 72d8 c43c d159 c5bd c837 93be 803a 95be
00000310: 1ace 513e 7651 45be d262 253e 7f59 69bd
00000320: 427f 06be ab4a 0dbe 0ed1 773c b323 813e
00000330: b4d1 963d d433 1d3e 3f1e 893e 84f3 e53d
00000340: 8737 bebd 48b9 943e e8fc db3d a6d5 843d
00000350: 88dd e53c 57ad 663e 211d 82be 24ce c5bd
00000360: 6be2 00be 30bb 50be 7952 323c fa28 153d
00000370: be92 4d3e 4113 90be a38e 463e 9938 c23d
00000380: 8c88 92bd 42ab 923d e0fb 1c3e aa68 c83d
00000390: 2af7 33be 8ca6 dbbd 6729 38be 2c5e 063e
000003a0: 4275 74bd 8063 a0be 0830 9a3d 3997 453e
000003b0: c339 ae3c 1949 86be 2a50 353e aacd f8bb
000003c0: 5abe 2fbe d2de 9abe 1e78 94be f814 b3bc
000003d0: 4ccd 803d e5c3 863d d04e 8ebe da75 923d
000003e0: 2688 02bd 0aaa 863e 9d30 8d3e 5092 2cbe
000003f0: 9a7b 97be 8003 e0bd 1a60 fabd 3428 b83d
0.16690682 -0.086994424 0.24893633 0.12720174 0.027039021 -0.22989225 0.2608645 -0.06821864
0.29496962 0.07608918 -0.13810591 -0.24889416 0.06602097 -0.0953377 0.19933939 0.056438584
-0.1244468 -0.2684169 0.040538274 0.29829276 -0.19250976 -0.2511315 0.08834938 -0.15665302
-0.24828091 0.1573691 -0.16169393 -0.079991944 -0.18695228 0.011965811 0.23291528 -0.22497621
-0.1275954 0.026382739 0.26298577 0.25049382 -0.1692538 0.066909805 -0.22629705 0.13253585
-0.04679443 -0.14020194 0.1232936 0.07178932 0.29098225 0.056835547 0.15018485 0.10772974
0.29405183 -0.21637873 0.23611642 -0.012506512 -0.079778455 0.14784904 0.0370418 0.00011338961
-0.17969412 -0.2687657 -0.24727099 0.20547567 0.22996916 0.26121685 0.1004628 -0.23740827
-0.13039161 -0.28386182 -0.3075644 -0.15570289 0.27298847 -0.009064689 -0.076883174 0.23276661
0.10787033 -0.080721736 0.2326057 -0.17856602 -0.22870106 -0.0349474 -0.26634887 -0.15293117
-0.10690228 -0.12120057 0.3048068 0.22331402 0.018173363 0.061458956 0.08392976 0.17085695
-0.18200302 -0.24826679 0.24599838 -0.12567933 -0.22619382 -0.106761396 0.06704047 0.11390353
0.20354778 0.290284 -0.14215267 -0.19223252 -0.1598401 0.12004806 0.27598357 0.115582354
0.28014043 0.24940312 -0.2444211 0.107357875 -0.2345637 0.10050716 -0.030434635 0.014658308
0.039364953 -0.029456677 -0.103276365 -0.24883886 0.10058113 -0.22525206 0.2831967 -0.110321864
0.16629949 0.050499965 -0.035679057 0.044380102 -0.25048053 -0.15247901 0.2589502 -0.010093981
0.019573836 -0.14885712 -0.06522677 -0.27390298 -0.20627199 0.22023836 0.098890595 -0.20013748
-0.15176538 -0.012571593 0.21971212 -0.120032154 -0.26653495 -0.0970304 0.041984946 0.02019896
-0.21224621 0.21630573 0.25727224 0.237565 -0.111855954 -0.28806835 -0.22657076 0.27658516
0.0792598 -0.19091697 -0.12075544 0.07369743 -0.21490115 0.13063924 -0.05340569 0.1929978
0.03711148 0.20959735 -0.089377254 -0.21226971 0.13991907 0.10713339 -0.06599147 -0.019460183
0.26594025 -0.20579131 0.15928213 -0.026683731 -0.15595727 -0.077848285 -0.07772739 0.17565386
-0.18758637 -0.1828376 -0.08161359 0.13942914 -0.16714548 -0.25539073 -0.06429136 -0.17516708
0.0050521423 -0.16552755 0.19106553 0.13910931 -0.10348327 -0.106759496 0.19399588 -0.24658039
0.02402899 -0.09636272 -0.28753495 -0.29146194 0.20488778 -0.19269356 0.16150978 -0.056970116
-0.13134483 -0.13798015 0.015125526 0.2522255 0.073642164 0.15351802 0.26780888 0.112280875
-0.09287935 0.29047608 0.107415974 0.06486063 0.028059736 0.22527061 -0.2541285 -0.09658459
-0.12586372 -0.20383906 0.010883921 0.03641603 0.20075509 -0.2813969 0.19390349 0.094834514
-0.071549505 0.07161571 0.15330458 0.09785588 -0.17574754 -0.10725126 -0.17984544 0.13121861
-0.05968214 -0.31325912 0.075286925 0.19295968 0.021267777 -0.26227644 0.17706361 -0.0075928764
-0.17162457 -0.30248123 -0.28997892 -0.021860585 0.06289157 0.06580333 -0.27794504 0.07151385
-0.031868123 0.26301605 0.27576151 -0.16852689 -0.29586488 -0.109381676 -0.12225361 0.08992043

fc1.bias f4 [64]
00000000: b39e 5e3e a9de bebd 5652 4dbe ac13 fc3d
00000010: f469 453d 7271 a83d f83b 6b3e 78b9 87bd
00000020: 7bd4 8d3e dd3f 35bd 1962 61be 44c6 3a3e
00000030: 0d8a 213e 1e8c 333e d2b0 773e 4327 5dbd
00000040: bd93 25be 0c35 463e cd61 983c 13e8 58be
00000050: 26eb 583e ddee 4bbe af27 143e 945e 0dbd
00000060: fdfa ef39 2a5a 263e 09cd 35be c2e0 f33d
00000070: ac30 36bd 0ea3 11be b174 90be 8a9c 7ebe
00000080: f60d 783e 6e0d a0be 3146 67be f9ed 823e
00000090: e98e 873e f38e 2a3e 0f59 cf3d 0561 68be
000000a0: 6ef6 3b3e d01c 80bd 87a4 6ebe 7239 67be
000000b0: 8969 38bc d72a 433d ebaa cabc 8ae5 87be
000000c0: 3318 86bd c611 073d 0320 7e3e 3d06 86be
000000d0: 8847 eebd 93d1 0fbe 9864 6a3e 7643 9d3d
000000e0: 7c2c 483e 1722 853d 62f2 39be 7b09 1fbe
000000f0: 3fa3 0a3e ceb0 1ebe 7716 99bc 49ad 5f3e
0.21740226 -0.09319813 -0.2005094 0.123084396 0.048196748 0.08224763 0.22972095 -0.06627172
0.27701172 -0.044250358 -0.22010078 0.18239695 0.15775318 0.17533919 0.24188545 -0.05399252
-0.16169639 0.19356173 0.018601323 -0.2118228 0.21183452 -0.19915338 0.14468263 -0.034514025
0.00045772633 0.16245332 -0.17753996 0.119081035 -0.04448001 -0.14222357 -0.28214028 -0.24864402
0.24224076 -0.31260246 -0.2258537 0.25572184 0.2647622 0.16656093 0.101244085 -0.2269326
0.18355724 -0.062554955 -0.2330495 -0.22580507 -0.01125563 0.047648277 -0.024739703 -0.26542312
-0.065475844 0.032975934 0.24816899 -0.26176634 -0.11634737 -0.1404479 0.22889936 0.07678883
0.1954822 0.06500643 -0.18158868 -0.1553096 0.13538836 -0.15497133 -0.01868747 0.21843447

norm1.weight f4 [64]
00000000: 3b6f 7c3f 6f48 7c3f 7164 7c3f a2dd 813f
00000010: 003e 823f 72c6 7c3f 92fd 813f 0715 7d3f
00000020: 2119 823f e3f6 813f a6f6 813f dc69 7b3f
00000030: 1f3c 7b3f ef16 7b3f c8b5 803f 9b32 823f
00000040: a0bc 7d3f 5a7e 813f 1180 803f bac5 7c3f
00000050: 8a6d 813f 170a 7c3f 93b9 7b3f e8d5 803f
00000060: 7920 813f 5b52 813f e714 7d3f aa38 7b3f
00000070: f26f 7d3f 70e7 803f 860a 7b3f 997e 7c3f
00000080: b047 7d3f 0489 7c3f 9ef6 813f 899e 7d3f
00000090: 0fde 813f fea5 7b3f e3d3 7b3f aff6 7a3f
000000a0: 30c2 7e3f 4912 823f 4576 803f 05ad 7e3f
000000b0: e7e4 7c3f 583b 7c3f 041a 7c3f 8932 7f3f
000000c0: 22bf 7b3f cd99 813f 88e9 813f d4e2 813f
000000d0: 5a5c 823f 27c7 823f 3fe7 7c3f 84a7 7b3f
000000e0: 6d85 813f c3f1 7d3f 9d83 793f 6f74 823f
000000f0: bf61 823f 5390 7a3f 0119 7f3f 43f8 7b3f
0.98607224 0.98548025 0.9859076 1.0145762 1.0175171 0.98740304 1.0155509 0.9886021
1.0163919 1.0153469 1.0153396 0.98208404 0.9813861 0.9808187 1.0055475 1.0171694
0.99115944 1.0116684 1.0039083 0.98739207 1.0111554 0.98452896 0.9833004 1.0065279
1.0088035 1.0103258 0.9886002 0.9813334 0.9899894 1.0070629 0.9806293 0.9863067
0.9893751 0.9864657 1.0153387 0.9907003 1.0145892 0.9830016 0.9837019 0.9803266
0.99515057 1.016183 1.0036093 0.99482757 0.9878678 0.9852805 0.98477197 0.99686486
0.9833852 1.0125061 1.0149393 1.0147347 1.0184433 1.0217026 0.98790354 0.98302484
1.0118843 0.99197024 0.9746645 1.0191783 1.018608 0.9787647 0.9964753 0.9842569

norm1.bias f4 [64]
00000000: d866 9739 88f7 78bc 61bd 3ebc 5bbf 63bc
00000010: 480d 893c 15b5 95bc 3ef4 7dbc e3e7 b0bc
00000020: c870 713c 0daa 4c3c 08c1 88bc 4572 9fbc
00000030: 08c2 9d3c a8b8 7bbc 1b71 cd3b 7902 873c
00000040: 4882 58bc 279c 443c c37f 1dba 1480 4e3c
00000050: a3bd 2e3c 1d02 81bc 9cf7 84bc 5313 5a3c
00000060: 07d6 2b3c a332 27bc 0f2e 353c 75ec 82bc
00000070: b483 643c 5f23 133c f985 40bc cf0d 6e3c
00000080: 525b 073c df60 58bc c37b 7b3c f9c6 123c
00000090: 5120 7c3c 5358 8bbc aaf3 84bc a080 81bc
000000a0: 9fb5 9a3c 6c4f 823c 376e 6dbc eb0a b63b
000000b0: 6656 3ebc 6bd2 64bc c52c 78bc b935 51bc
000000c0: 115a 8abc d3a5 5e3c 0092 6e3c 565e 87bc
000000d0: ba0e 9b3c 3358 4b3c 6497 453c 07dd 893c
000000e0: 8d12 71bc e774 0abc 1537 4ebc 3762 a6bc
000000f0: d1f2 733c 7549 85bc fb15 81bc 8354 7f3c
0.0002887759 -0.015195735 -0.011641831 -0.013900603 0.016729966 -0.018274823 -0.015500126 -0.021594947
0.014736362 0.012491715 -0.016693607 -0.019463668 0.01925756 -0.01536385 0.0062695867 0.016480671
-0.013214655 0.01200012 -0.00060081127 0.012603778 0.01066533 -0.015748078 -0.01623135 0.013310271
0.01048804 -0.010204944 0.0110583445 -0.015981892 0.013947416 0.008980601 -0.011750692 0.014529659
0.008261519 -0.01320669 0.015349331 0.008958572 0.015388564 -0.01700989 -0.01622947 -0.015808403
0.018885432 0.015907012 -0.014491609 0.0055555007 -0.011617279 -0.013966183 -0.015147393 -0.012769156
-0.01688865 0.01358934 0.014561176 -0.016524475 0.01892792 0.012411165 0.01206002 0.016829027
-0.0147138955 -0.008450723 -0.012586375 -0.020310504 0.014889435 -0.016270379 -0.015757551 0.015584114

fc2.weight f4 [32, 64]
00000000: 1667 203d fac8 0dbd 5426 b1bd 0430 adbd
00000010: 6748 c5bc eb21 58bd 0661 fb3d 877b 3e3c
00000020: 8df2 883d 85d3 993c 9253 e23d 5fd1 a83d
00000030: 7253 22bd 6fa3 26bd 5f75 a0bc ebc7 44ba
00000040: bfea 893d e7e3 9c3d b4ef 983d e304 673d
00000050: 7d54 a73d 7a03 08bd 2433 76bd 453b a9bc
00000060: 9628 dbbd bdce f83d fec7 833d b00d 003e
00000070: 0909 3d3d f2c0 e83d ebf4 1dbc 9188 dc3d
00000080: 1870 c3bd 5626 d53d b4ae 0e3d 0ad4 263d
00000090: 5ce9 36bd c79b b03c 78e7 54bd 7b87 8c3d
000000a0: 1a6e 843d cc5b 503d f1dd a6bd 6e1c 4abd
000000b0: f0da cd3d c3f6 0cbd 3527 c93d ae48 8b3d
000000c0: 5a02 af3c 2229 12be b4e6 08be fb27 d3bd
000000d0: 1798 203d ba96 fdbd 4ea2 96bd d9aa babd
000000e0: 347c c9bd 849d 10be 4080 b83d 755b 4d3d
000000f0: 1887 b0bd 78e4 8bbd cd2a a83d 34bc 313b
00000100: 5bbc 7bbd 1f56 9dbd e1e3 f83c 4d73 c83d
00000110: b415 4d3d 169e bb3c 4fe3 d43c 1d76 3ebd
00000120: 3559 013d 224d 283d 6202 833a 8bad fb3c
00000130: c0dd 763d 52a0 383d 594e 213d 7a3a 903d
00000140: 94b6 29bd 859d b33d 8d3a 8d3d c144 aabd
00000150: 1020 ee3b aa8a ac3d 7490 c6bd 1857 60bd
00000160: 14d6 efbd 3cdc bbbd cb9f f23d b725 22bd
00000170: 2c16 c8bd 9f84 0f3d 0db5 8a3d 3270 183c
00000180: 6ed6 18bd f70b 20bc 63c2 cebd a000 a2bc
00000190: b8af 9dbd c685 8d3d 66c0 8cbd a95b fe3d
000001a0: 25ac d63c 1588 8bbd 3d48 95bd 0394 81bd
000001b0: a8b7 c13b 54aa ecbd 4dfe 093a 49a2 05be
000001c0: a071 dcbc 398e e3bc f25e e2bd 9e07 bebd
000001d0: f01b 94bd a4a7 b6bd 0cfa 5f3d 50a7 16bb
000001e0: 9a9b dd3d 78ea b63d b6c2 043c f388 78bd
000001f0: d16d 893d 6225 ebbd edaa 6e3d 1eab 913c
00000200: d2ef 0e3d 1ab2 d43d 395c 4f3b 4e6d ce3d
00000210: 5d4c 793d 9686 853d 5c50 283c 0769 db3c
00000220: ceb5 963d 0314 90bc 4fc6 fdbc bb24 90bd
00000230: 6963 e53d c79d a63d 9c39 e53d 23e6 dd39
00000240: f513 5d3c 2260 debc 6efb 2dbd aa72 9abc
00000250: ae9a 003e a3ae bfbd 0592 32bd 318d afbd
00000260: e064 a23d 4044 aabb 88be 8fbd 39e7 f13d
00000270: ee5d 9d3c ddda bcbb 3752 0b3d b36c ed3d
00000280: 6ec3 c13d e930 f2bd 7a78 88bc eb5e 0c3d
00000290: 779f 1cbd 6769 863c d52d 68bd 4286 0b3e
000002a0: 60ba a8bc 6d18 f03d da54 ccbc e7f8 aabd
000002b0: 92cd a0bd fd35 5b3d 0516 13bd f660 a9bd
000002c0: 2d02 a0bd 2473 03be 2c40 52bd c52d d73d
000002d0: 3ffc 9a3b 8106 53bd ca64 f03d 94be df3d
000002e0: e821 4fbd a0be 27bd b936 b8bc 35bd 59bd
000002f0: 6bf6 2a3d f0f4 0bbe 00ed d8bc 6de9 383d
00000300: 3f36 a3bd ec46 153d e137 023d c844 a13d
00000310: 7cd2 83bd dd4f e83a 5efb c23d 94d3 603d
00000320: 51ef 00be 513f 8d3d 2741 c9bc 0329 0a3e
00000330: 26f2 aa3d dd8b 0fbd 8598 cebd afa0 03be
00000340: ad58 b73c 44c3 cabd dd9c 663d d1f8 813d
00000350: f0af 90bc 2c9c 5c3d f015 d73d caad b43d
00000360: 4adc 763c 795e d33c 754e a53d f8a4 9e3d
00000370: 59b0 abbd 6ad5 ed3d 95ac 4abd c4aa d93c
00000380: f67d 0cbd b351 df3d f3ef c33d 5b60 0a3e
00000390: a01f 87bd c044 9b3d e0fb e93c a7c4 d4bd
000003a0: 3093 8fbb de19 1f3d db76 fd3d a59a 203b
000003b0: 83e3 c1bc dd96 7a3d 456c 963d 981c edbd
000003c0: eaf2 d13d de44 b7bd 118d 15bd e296 a5bd
000003d0: 8fb9 d4bd 3e52 0dbe a19e 4e3c 5c00 8e3d
000003e0: 903c 9e3d 7ee7 863d ccf0 723c 078d d03d
000003f0: 1bd8 913d 8f89 4c3d e496 e4bd f435 8ebd
0.03916081 -0.034615494 -0.08649889 -0.08456424 -0.024082376 -0.05276672 0.12274365 0.011626131
0.06686888 0.018777618 0.11051096 0.08243059 -0.03963036 -0.040683206 -0.019587217 -0.0007506597
0.067342274 0.076606564 0.07467595 0.056401145 0.08170412 -0.03320644 -0.060107365 -0.020658145
-0.107011005 0.12148807 0.0643463 0.12505221 0.046151195 0.113649264 -0.0096409125 0.107682355
-0.095428646 0.104077026 0.03483458 0.04072956 -0.044656143 0.021558655 -0.05197856 0.06861778
0.06466313 0.050868794 -0.08147801 -0.04934352 0.10051525 -0.034415018 0.09821931 0.06800972
0.021363426 -0.14273503 -0.13369256 -0.1031036 0.039207544 -0.123822644 -0.07355176 -0.09114618
-0.09838143 -0.14122587 0.09008837 0.05013605 -0.08619517 -0.06830686 0.082112886 0.0027120234
-0.061458927 -0.07682442 0.030382099 0.09787617 0.050069526 0.02290253 0.025987295 -0.04649936
0.031579215 0.041089185 0.0009995217 0.0307224 0.06027007 0.04507477 0.03938136 0.070424035
-0.041433886 0.08770279 0.06895933 -0.08313895 0.0072670057 0.084248856 -0.09695521 -0.05477056
-0.11710754 -0.09172866 0.11846884 -0.03958675 -0.09769854 0.035038587 0.06772814 0.009304093
-0.03731387 -0.009768478 -0.1009567 -0.019775689 -0.07699531 0.06910281 -0.068726346 0.124198265
0.026205132 -0.06813065 -0.07289169 -0.06327059 0.005911786 -0.11555925 0.0005264029 -0.13050188
-0.02690965 -0.027777778 -0.11053266 -0.092787966 -0.07231891 -0.08918694 0.054681823 -0.002298791
0.10820694 0.0893144 0.008103063 -0.06067748 0.06710399 -0.114817396 0.058268476 0.01778179
0.03489668 0.10385533 0.0031640662 0.10079442 0.06086384 0.06519811 0.010273065 0.02678348
0.07358895 -0.017587667 -0.03097835 -0.07038256 0.112006016 0.081355624 0.11192629 0.0004232387
0.013493528 -0.02714545 -0.04247611 -0.018853504 0.12559006 -0.09359481 -0.043596286 -0.08571852
0.07929397 -0.0051961243 -0.07018763 0.1181168 0.019209828 -0.005763395 0.034013953 0.11592998
0.094611034 -0.11825735 -0.01665901 0.03427021 -0.038238015 0.016407682 -0.056684334 0.13625434
-0.020596683 0.11723409 -0.024942804 -0.083482556 -0.078517094 0.053518284 -0.03590967 -0.08270447
-0.07812915 -0.12836891 -0.05133073 0.10506777 0.004729777 -0.051519874 0.11737974 0.10925022
-0.050569445 -0.04095328 -0.022487031 -0.053158958 0.04173891 -0.13667655 -0.026480198 0.045144487
-0.07969331 0.03644459 0.03179157 0.07874447 -0.06436631 0.0017723996 0.09520601 0.054889277
-0.12591292 0.06896842 -0.0245672 0.13492207 0.083469674 -0.035045493 -0.100876845 -0.12854265
0.022381151 -0.09900525 0.05630194 0.06346286 -0.017662019 0.053859875 0.10502231 0.0882221
0.015067169 0.025801884 0.08071605 0.07746309 -0.08383245 0.11612971 -0.049480993 0.026570685
-0.034299813 0.10904255 0.09567251 0.13513319 -0.06597829 0.075814724 0.028562486 -0.10389071
-0.00438156 0.03884303 0.123761855 0.0024506238 -0.023668056 0.06117903 0.073448695 -0.115777194
0.1025141 -0.08948682 -0.036511485 -0.08085419 -0.10386955 -0.13800904 0.012611062 0.06933662
0.07726395 0.065871224 0.014827918 0.10183149 0.07121297 0.049935874 -0.111615926 -0.069438845

fc2.bias f4 [32]
00000000: 7365 69bd 2f05 cdbd 00cf 2b3b 7f5e ccbc
00000010: f3e6 5fbd 7ae9 d1bd e3fb 0c3e 0446 a3bd
00000020: cd8c 37bd 71c9 7e3d f00c ce3d 1a40 a13d
00000030: b596 3b3d 98ff 673d 97ff 81bd 5744 d23d
00000040: 16da db3d 5420 eb3d 1d6c c7bb 50ed acbd
00000050: 4a34 b43d 2659 8d3d bfcb c3bd 1876 f6bd
00000060: 8860 adbc 6670 52bc c001 013d c813 8d3b
00000070: 582d 6c3c ea55 c4bd 58b6 62bd e37f df3c
-0.056981515 -0.10010754 0.002621591 -0.024947403 -0.05466361 -0.1024961 0.13767962 -0.07972339
-0.044812012 0.06220383 0.100610614 0.078735545 0.045798022 0.056640238 -0.06347578 0.10266941
0.10734956 0.114807755 -0.006085886 -0.08443701 0.08799036 0.06901769 -0.09560346 -0.12034243
-0.021164194 -0.012844181 0.03149581 0.0043053366 0.014415108 -0.09586699 -0.055349678 0.02728266

norm2.weight f4 [32]
00000000: b2fa 7d3f 8011 7e3f 4bf7 813f 7b95 7c3f
00000010: ea14 823f 712c 7e3f 17dc 7f3f 6972 7c3f
00000020: e6dd 813f 598f 7c3f c483 7c3f 97dd 7e3f
00000030: e000 823f d320 823f 09d6 823f aadb 813f
00000040: 5b69 813f 656e 7f3f d92b 7d3f 48f6 7d3f
00000050: d646 823f 0419 7c3f 1760 7d3f d78c 7c3f
00000060: 0f88 7c3f 63b8 803f 410e 7d3f e2aa 803f
00000070: c015 823f 73a7 7c3f c983 813f 3b40 823f
0.99210656 0.9924545 1.0153593 0.9866559 1.0162632 0.9928656 0.99945205 0.98612076
1.0145843 0.9865623 0.9863856 0.9955687 1.0156517 1.0166267 1.0221568 1.0145161
1.0110277 0.99777824 0.9889503 0.9920392 1.0177867 0.9847567 0.98974746 0.98652405
0.9864511 1.005627 0.98849875 1.0052149 1.0162888 0.9869301 1.0118343 1.0175852

norm2.bias f4 [32]
00000000: fb94 6ebc 55d6 67bc 646d 593c a31a 80bc
00000010: 6d9e 803c 977a 62bc 4189 8f3c 875e f5bb
00000020: a0cb 7c3c 9d57 62bc 1c82 62bc fdee 813c
00000030: ba5e 843c 1d70 823c 6c23 8e3c 28c4 703c
00000040: e92b 513c 82f1 c43b 9a24 f0bc 46bf 73bc
00000050: e082 883c 6135 98bc dbc6 72bc 0aa0 80bc
00000060: 3656 5cbc 255b 823c 842d 79bc 1f3a 873b
00000070: b08a 8f3c ebd9 39bc e81f 7abc c801 823c
-0.014561887 -0.014150222 0.01327071 -0.015637701 0.015700543 -0.013823173 0.017521502 -0.007488075
0.015429407 -0.013814834 -0.013824966 0.015861029 0.01615845 0.0159226 0.017350875 0.014695205
0.012766817 0.0060102353 -0.029314328 -0.014877146 0.016663969 -0.01858014 -0.014817919 -0.015701313
-0.013448289 0.015912602 -0.015208606 0.0041268016 0.017522186 -0.01134346 -0.015266396 0.01586999

out.weight f4 [2, 32]
00000000: ba92 21be a02c ddbd e99d e33d f5c0 02be
00000010: 8ae4 953c 2bbd b3bd 986b af3d 790a a3bd
00000020: 36ed 233e 50bf dbbd aa45 25bd cc66 6ebd
00000030: 1596 f63c 3edc 273e 9f3e 403d 3250 263e
00000040: 09da 133e bf2e 0bbe 7fd1 283d 3c77 1cbd
00000050: acf9 a23d 6604 1f3d b151 a43c 89f8 36bd
00000060: 1e0e 1fbe 4611 99bd fa13 27be 4aac f9bd
00000070: 4bd6 353e 8863 85bd 45e1 e2bc 57a9 a73d
00000080: a2df 8abd 4926 313e 7645 c73c ce32 d93d
00000090: 554c 0dbe 6530 453c cd0a c03c dec0 6ebd
000000a0: 3de6 a1bc 07c7 e2bd 8304 19bd c4fa 82bd
000000b0: 775f 03be 420f 783d 972a 92bd 1a2a b63d
000000c0: a951 32be 6633 edbd 7c9d bc3d 77eb 2b3e
000000d0: c790 64bd 2083 c33d f673 ec3d c269 243e
000000e0: 6e9e 20be 0b45 b6bd 92e2 213e 4a29 19be
000000f0: 1bb2 053e 8454 923d 1a4f d73d 1e5f 593d
-0.15778628 -0.10799527 0.11114103 -0.1276892 0.018297452 -0.08776315 0.08565444 -0.07960982
0.16008458 -0.10729849 -0.04034964 -0.058203503 0.030100862 0.1639261 0.04693472 0.1624153
0.14438643 -0.13592051 0.041215416 -0.03819965 0.079577774 0.038822554 0.020058485 -0.044670615
-0.15532729 -0.07473998 -0.16316214 -0.12191065 0.17757528 -0.06513125 -0.027695308 0.08186596
-0.06780936 0.17299761 0.024325114 0.10605393 -0.1379865 0.012035464 0.02344265 -0.0582894
-0.019763106 -0.11073118 -0.03735782 -0.06395486 -0.12829386 0.060561426 -0.071370296 0.08894749
-0.17413963 -0.11582069 0.09209725 0.16789041 -0.055802133 0.095464945 0.11545555 0.16055968
-0.15685436 -0.08899888 0.15809086 -0.14957157 0.13056223 0.07145026 0.10513134 0.053069226

out.bias f4 [2]
00000000: 8ecf a2bd b1af 8f3c
-0.07949744 0.01753983
